…
      "Model: \"model\"\n",
      "__________________________________________________________________________________________________\n",
      "Layer (type)                    Output Shape         Param #     Connected to                     \n",
      "==================================================================================================\n",
      "input_1 (InputLayer)            [(None, 32, 32, 3)]  0                                            \n",
      "__________________________________________________________________________________________________\n",
      "conv2d (Conv2D)                 (None, 32, 32, 24)   1152        input_1[0][0]                    \n",
      "__________________________________________________________________________________________________\n",
      "batch_normalization (BatchNorma (None, 32, 32, 24)   96          conv2d[0][0]                     \n",
      "__________________________________________________________________________________________________\n",
      "activation (Activation)         (None, 32, 32, 24)   0           batch_normalization[0][0]        \n",
      "__________________________________________________________________________________________________\n",
      "conv2d_1 (Conv2D)               (None, 32, 32, 12)   2592        activation[0][0]                 \n",
      "__________________________________________________________________________________________________\n",
      "concatenate (Concatenate)       (None, 32, 32, 36)   0           conv2d[0][0]                     \n",
      "                                                                 conv2d_1[0][0]                   \n",
      "__________________________________________________________________________________________________\n",
      "batch_normalization_1 (BatchNor (None, 32, 32, 36)   144         concatenate[0][0]                \n",
      "__________________________________________________________________________________________________\n",
      "activation_1 (Activation)       (None, 32, 32, 36)   0           batch_normalization_1[0][0]      \n",
      "__________________________________________________________________________________________________\n",
      "conv2d_2 (Conv2D)               (None, 32, 32, 12)   3888        activation_1[0][0]               \n",
      "__________________________________________________________________________________________________\n",
      "concatenate_1 (Concatenate)     (None, 32, 32, 48)   0           concatenate[0][0]                \n",
      "                                                                 conv2d_2[0][0]                   \n",
      "__________________________________________________________________________________________________\n",
      "batch_normalization_2 (BatchNor (None, 32, 32, 48)   192         concatenate_1[0][0]              \n",
      "__________________________________________________________________________________________________\n",
      "activation_2 (Activation)       (None, 32, 32, 48)   0           batch_normalization_2[0][0]      \n",
      "__________________________________________________________________________________________________\n",
      "conv2d_3 (Conv2D)               (None, 32, 32, 12)   5184        activation_2[0][0]               \n",
      "__________________________________________________________________________________________________\n",
      "concatenate_2 (Concatenate)     (None, 32, 32, 60)   0           concatenate_1[0][0]              \n",
      "                                                                 conv2d_3[0][0]                   \n",
      "__________________________________________________________________________________________________\n",
      "batch_normalization_3 (BatchNor (None, 32, 32, 60)   240         concatenate_2[0][0]              \n",
      "__________________________________________________________________________________________________\n",
      "activation_3 (Activation)       (None, 32, 32, 60)   0           batch_normalization_3[0][0]      \n",
      "__________________________________________________________________________________________________\n",
      "conv2d_4 (Conv2D)               (None, 32, 32, 12)   6480        activation_3[0][0]               \n",
      "__________________________________________________________________________________________________\n",
      "concatenate_3 (Concatenate)     (None, 32, 32, 72)   0           concatenate_2[0][0]              \n",
      "                                                                 conv2d_4[0][0]                   \n",
      "__________________________________________________________________________________________________\n",
      "batch_normalization_4 (BatchNor (None, 32, 32, 72)   288         concatenate_3[0][0]              \n",
      "__________________________________________________________________________________________________\n",
      "activation_4 (Activation)       (None, 32, 32, 72)   0           batch_normalization_4[0][0]      \n",
      "__________________________________________________________________________________________________\n",
      "conv2d_5 (Conv2D)               (None, 32, 32, 12)   7776        activation_4[0][0]               \n",
      "__________________________________________________________________________________________________\n",
      "concatenate_4 (Concatenate)     (None, 32, 32, 84)   0           concatenate_3[0][0]              \n",
      "                                                                 conv2d_5[0][0]                   \n",
      "__________________________________________________________________________________________________\n",
      "batch_normalization_5 (BatchNor (None, 32, 32, 84)   336         concatenate_4[0][0]              \n",
      "__________________________________________________________________________________________________\n",
      "activation_5 (Activation)       (None, 32, 32, 84)   0           batch_normalization_5[0][0]      \n",
      "__________________________________________________________________________________________________\n",
      "conv2d_6 (Conv2D)               (None, 32, 32, 12)   9072        activation_5[0][0]               \n",
      "__________________________________________________________________________________________________\n",
      "concatenate_5 (Concatenate)     (None, 32, 32, 96)   0           concatenate_4[0][0]              \n",
      "                                                                 conv2d_6[0][0]                   \n",
      "__________________________________________________________________________________________________\n",
      "batch_normalization_6 (BatchNor (None, 32, 32, 96)   384         concatenate_5[0][0]              \n",
      "__________________________________________________________________________________________________\n",
      "activation_6 (Activation)       (None, 32, 32, 96)   0           batch_normalization_6[0][0]      \n",
      "__________________________________________________________________________________________________\n",
      "conv2d_7 (Conv2D)               (None, 32, 32, 12)   10368       activation_6[0][0]               \n",
      "__________________________________________________________________________________________________\n",
      "concatenate_6 (Concatenate)     (None, 32, 32, 108)  0           concatenate_5[0][0]              \n",
      "                                                                 conv2d_7[0][0]                   \n",
      "__________________________________________________________________________________________________\n",
      "batch_normalization_7 (BatchNor (None, 32, 32, 108)  432         concatenate_6[0][0]              \n",
      "__________________________________________________________________________________________________\n",
      "activation_7 (Activation)       (None, 32, 32, 108)  0           batch_normalization_7[0][0]      \n",
      "__________________________________________________________________________________________________\n",
      "conv2d_8 (Conv2D)               (None, 32, 32, 12)   11664       activation_7[0][0]               \n",
      "__________________________________________________________________________________________________\n",
      "concatenate_7 (Concatenate)     (None, 32, 32, 120)  0           concatenate_6[0][0]              \n",
      "                                                                 conv2d_8[0][0]                   \n",
      "__________________________________________________________________________________________________\n",
      "batch_normalization_8 (BatchNor (None, 32, 32, 120)  480         concatenate_7[0][0]              \n",
      "__________________________________________________________________________________________________\n",
      "activation_8 (Activation)       (None, 32, 32, 120)  0           batch_normalization_8[0][0]      \n",
      "__________________________________________________________________________________________________\n",
      "conv2d_9 (Conv2D)               (None, 32, 32, 12)   12960       activation_8[0][0]               \n",
      "__________________________________________________________________________________________________\n",
      "concatenate_8 (Concatenate)     (None, 32, 32, 132)  0           concatenate_7[0][0]              \n",
      "                                                                 conv2d_9[0][0]                   \n",
      "__________________________________________________________________________________________________\n",
      "batch_normalization_9 (BatchNor (None, 32, 32, 132)  528         concatenate_8[0][0]              \n",
      "__________________________________________________________________________________________________\n",
      "activation_9 (Activation)       (None, 32, 32, 132)  0           batch_normalization_9[0][0]      \n",
      "__________________________________________________________________________________________________\n",
      "conv2d_10 (Conv2D)              (None, 32, 32, 12)   14256       activation_9[0][0]               \n",
      "__________________________________________________________________________________________________\n",
      "concatenate_9 (Concatenate)     (None, 32, 32, 144)  0           concatenate_8[0][0]              \n",
      "                                                                 conv2d_10[0][0]                  \n",
      "__________________________________________________________________________________________________\n",
      "batch_normalization_10 (BatchNo (None, 32, 32, 144)  576         concatenate_9[0][0]              \n",
      "__________________________________________________________________________________________________\n",
      "activation_10 (Activation)      (None, 32, 32, 144)  0           batch_normalization_10[0][0]     \n",
      "__________________________________________________________________________________________________\n",
      "conv2d_11 (Conv2D)              (None, 32, 32, 12)   15552       activation_10[0][0]              \n",
      "__________________________________________________________________________________________________\n",
      "concatenate_10 (Concatenate)    (None, 32, 32, 156)  0           concatenate_9[0][0]              \n",
      "                                                                 conv2d_11[0][0]                  \n",
      "__________________________________________________________________________________________________\n",
      "batch_normalization_11 (BatchNo (None, 32, 32, 156)  624         concatenate_10[0][0]             \n",
      "__________________________________________________________________________________________________\n",
      "activation_11 (Activation)      (None, 32, 32, 156)  0           batch_normalization_11[0][0]     \n",
      "__________________________________________________________________________________________________\n",
      "conv2d_12 (Conv2D)              (None, 32, 32, 12)   16848       activation_11[0][0]              \n",
      "__________________________________________________________________________________________________\n",
      "concatenate_11 (Concatenate)    (None, 32, 32, 168)  0           concatenate_10[0][0]             \n",
      "                                                                 conv2d_12[0][0]                  \n",
      "__________________________________________________________________________________________________\n",
      "batch_normalization_12 (BatchNo (None, 32, 32, 168)  672         concatenate_11[0][0]             \n",
      "__________________________________________________________________________________________________\n",
      "activation_12 (Activation)      (None, 32, 32, 168)  0           batch_normalization_12[0][0]     \n",
      "__________________________________________________________________________________________________\n",
      "conv2d_13 (Conv2D)              (None, 32, 32, 12)   18144       activation_12[0][0]              \n",
      "__________________________________________________________________________________________________\n",
      "concatenate_12 (Concatenate)    (None, 32, 32, 180)  0           concatenate_11[0][0]             \n",
      "                                                                 conv2d_13[0][0]                  \n",
      "__________________________________________________________________________________________________\n",
      "batch_normalization_13 (BatchNo (None, 32, 32, 180)  720         concatenate_12[0][0]             \n",
      "__________________________________________________________________________________________________\n",
      "activation_13 (Activation)      (None, 32, 32, 180)  0           batch_normalization_13[0][0]     \n",
      "__________________________________________________________________________________________________\n",
      "conv2d_14 (Conv2D)              (None, 32, 32, 12)   19440       activation_13[0][0]              \n",
      "__________________________________________________________________________________________________\n",
      "concatenate_13 (Concatenate)    (None, 32, 32, 192)  0           concatenate_12[0][0]             \n",
      "                                                                 conv2d_14[0][0]                  \n",
      "__________________________________________________________________________________________________\n",
      "batch_normalization_14 (BatchNo (None, 32, 32, 192)  768         concatenate_13[0][0]             \n",
      "__________________________________________________________________________________________________\n",
      "activation_14 (Activation)      (None, 32, 32, 192)  0           batch_normalization_14[0][0]     \n",
      "__________________________________________________________________________________________________\n",
      "conv2d_15 (Conv2D)              (None, 32, 32, 12)   20736       activation_14[0][0]              \n",
      "__________________________________________________________________________________________________\n",
      "concatenate_14 (Concatenate)    (None, 32, 32, 204)  0           concatenate_13[0][0]             \n",
      "                                                                 conv2d_15[0][0]                  \n",
      "__________________________________________________________________________________________________\n",
      "batch_normalization_15 (BatchNo (None, 32, 32, 204)  816         concatenate_14[0][0]             \n",
      "__________________________________________________________________________________________________\n",
      "activation_15 (Activation)      (None, 32, 32, 204)  0           batch_normalization_15[0][0]     \n",
      "__________________________________________________________________________________________________\n",
      "conv2d_16 (Conv2D)              (None, 32, 32, 12)   22032       activation_15[0][0]              \n",
      "__________________________________________________________________________________________________\n",
      "concatenate_15 (Concatenate)    (None, 32, 32, 216)  0           concatenate_14[0][0]             \n",
      "                                                                 conv2d_16[0][0]                  \n",
      "__________________________________________________________________________________________________\n",
      "batch_normalization_16 (BatchNo (None, 32, 32, 216)  864         concatenate_15[0][0]             \n",
      "__________________________________________________________________________________________________\n",
      "activation_16 (Activation)      (None, 32, 32, 216)  0           batch_normalization_16[0][0]     \n",
      "__________________________________________________________________________________________________\n",
      "conv2d_17 (Conv2D)              (None, 32, 32, 12)   2592        activation_16[0][0]              \n",
      "__________________________________________________________________________________________________\n",
      "average_pooling2d (AveragePooli (None, 16, 16, 12)   0           conv2d_17[0][0]                  \n",
      "__________________________________________________________________________________________________\n",
      "batch_normalization_17 (BatchNo (None, 16, 16, 12)   48          average_pooling2d[0][0]          \n",
      "__________________________________________________________________________________________________\n",
      "activation_17 (Activation)      (None, 16, 16, 12)   0           batch_normalization_17[0][0]     \n",
      "__________________________________________________________________________________________________\n",
      "conv2d_18 (Conv2D)              (None, 16, 16, 12)   1296        activation_17[0][0]              \n",
      "__________________________________________________________________________________________________\n",
      "concatenate_16 (Concatenate)    (None, 16, 16, 24)   0           average_pooling2d[0][0]          \n",
      "                                                                 conv2d_18[0][0]                  \n",
      "__________________________________________________________________________________________________\n",
      "batch_normalization_18 (BatchNo (None, 16, 16, 24)   96          concatenate_16[0][0]             \n",
      "__________________________________________________________________________________________________\n",
      "activation_18 (Activation)      (None, 16, 16, 24)   0           batch_normalization_18[0][0]     \n",
      "__________________________________________________________________________________________________\n",
      "conv2d_19 (Conv2D)              (None, 16, 16, 12)   2592        activation_18[0][0]              \n",
      "__________________________________________________________________________________________________\n",
      "concatenate_17 (Concatenate)    (None, 16, 16, 36)   0           concatenate_16[0][0]             \n",
      "                                                                 conv2d_19[0][0]                  \n",
      "__________________________________________________________________________________________________\n",
      "batch_normalization_19 (BatchNo (None, 16, 16, 36)   144         concatenate_17[0][0]             \n",
      "__________________________________________________________________________________________________\n",
      "activation_19 (Activation)      (None, 16, 16, 36)   0           batch_normalization_19[0][0]     \n",
      "__________________________________________________________________________________________________\n",
      "conv2d_20 (Conv2D)              (None, 16, 16, 12)   3888        activation_19[0][0]              \n",
      "__________________________________________________________________________________________________\n",
      "concatenate_18 (Concatenate)    (None, 16, 16, 48)   0           concatenate_17[0][0]             \n",
      "                                                                 conv2d_20[0][0]                  \n",
      "__________________________________________________________________________________________________\n",
      "batch_normalization_20 (BatchNo (None, 16, 16, 48)   192         concatenate_18[0][0]             \n",
      "__________________________________________________________________________________________________\n",
      "activation_20 (Activation)      (None, 16, 16, 48)   0           batch_normalization_20[0][0]     \n",
      "__________________________________________________________________________________________________\n",
      "conv2d_21 (Conv2D)              (None, 16, 16, 12)   5184        activation_20[0][0]              \n",
      "__________________________________________________________________________________________________\n",
      "concatenate_19 (Concatenate)    (None, 16, 16, 60)   0           concatenate_18[0][0]             \n",
      "                                                                 conv2d_21[0][0]                  \n",
      "__________________________________________________________________________________________________\n",
      "batch_normalization_21 (BatchNo (None, 16, 16, 60)   240         concatenate_19[0][0]             \n",
      "__________________________________________________________________________________________________\n",
      "activation_21 (Activation)      (None, 16, 16, 60)   0           batch_normalization_21[0][0]     \n",
      "__________________________________________________________________________________________________\n",
      "conv2d_22 (Conv2D)              (None, 16, 16, 12)   6480        activation_21[0][0]              \n",
      "__________________________________________________________________________________________________\n",
      "concatenate_20 (Concatenate)    (None, 16, 16, 72)   0           concatenate_19[0][0]             \n",
      "                                                                 conv2d_22[0][0]                  \n",
      "__________________________________________________________________________________________________\n",
      "batch_normalization_22 (BatchNo (None, 16, 16, 72)   288         concatenate_20[0][0]             \n",
      "__________________________________________________________________________________________________\n",
      "activation_22 (Activation)      (None, 16, 16, 72)   0           batch_normalization_22[0][0]     \n",
      "__________________________________________________________________________________________________\n",
      "conv2d_23 (Conv2D)              (None, 16, 16, 12)   7776        activation_22[0][0]              \n",
      "__________________________________________________________________________________________________\n",
      "concatenate_21 (Concatenate)    (None, 16, 16, 84)   0           concatenate_20[0][0]             \n",
      "                                                                 conv2d_23[0][0]                  \n",
      "__________________________________________________________________________________________________\n",
      "batch_normalization_23 (BatchNo (None, 16, 16, 84)   336         concatenate_21[0][0]             \n",
      "__________________________________________________________________________________________________\n",
      "activation_23 (Activation)      (None, 16, 16, 84)   0           batch_normalization_23[0][0]     \n",
      "__________________________________________________________________________________________________\n",
      "conv2d_24 (Conv2D)              (None, 16, 16, 12)   9072        activation_23[0][0]              \n",
      "__________________________________________________________________________________________________\n",
      "concatenate_22 (Concatenate)    (None, 16, 16, 96)   0           concatenate_21[0][0]             \n",
      "                                                                 conv2d_24[0][0]                  \n",
      "__________________________________________________________________________________________________\n",
      "batch_normalization_24 (BatchNo (None, 16, 16, 96)   384         concatenate_22[0][0]             \n",
      "__________________________________________________________________________________________________\n",
      "activation_24 (Activation)      (None, 16, 16, 96)   0           batch_normalization_24[0][0]     \n",
      "__________________________________________________________________________________________________\n",
      "conv2d_25 (Conv2D)              (None, 16, 16, 12)   10368       activation_24[0][0]              \n",
      "__________________________________________________________________________________________________\n",
      "concatenate_23 (Concatenate)    (None, 16, 16, 108)  0           concatenate_22[0][0]             \n",
      "                                                                 conv2d_25[0][0]                  \n",
      "__________________________________________________________________________________________________\n",
      "batch_normalization_25 (BatchNo (None, 16, 16, 108)  432         concatenate_23[0][0]             \n",
      "__________________________________________________________________________________________________\n",
      "activation_25 (Activation)      (None, 16, 16, 108)  0           batch_normalization_25[0][0]     \n",
      "__________________________________________________________________________________________________\n",
      "conv2d_26 (Conv2D)              (None, 16, 16, 12)   11664       activation_25[0][0]              \n",
      "__________________________________________________________________________________________________\n",
      "concatenate_24 (Concatenate)    (None, 16, 16, 120)  0           concatenate_23[0][0]             \n",
      "                                                                 conv2d_26[0][0]                  \n",
      "__________________________________________________________________________________________________\n",
      "batch_normalization_26 (BatchNo (None, 16, 16, 120)  480         concatenate_24[0][0]             \n",
      "__________________________________________________________________________________________________\n",
      "activation_26 (Activation)      (None, 16, 16, 120)  0           batch_normalization_26[0][0]     \n",
      "__________________________________________________________________________________________________\n",
      "conv2d_27 (Conv2D)              (None, 16, 16, 12)   12960       activation_26[0][0]              \n",
      "__________________________________________________________________________________________________\n",
      "concatenate_25 (Concatenate)    (None, 16, 16, 132)  0           concatenate_24[0][0]             \n",
      "                                                                 conv2d_27[0][0]                  \n",
      "__________________________________________________________________________________________________\n",
      "batch_normalization_27 (BatchNo (None, 16, 16, 132)  528         concatenate_25[0][0]             \n",
      "__________________________________________________________________________________________________\n",
      "activation_27 (Activation)      (None, 16, 16, 132)  0           batch_normalization_27[0][0]     \n",
      "__________________________________________________________________________________________________\n",
      "conv2d_28 (Conv2D)              (None, 16, 16, 12)   14256       activation_27[0][0]              \n",
      "__________________________________________________________________________________________________\n",
      "concatenate_26 (Concatenate)    (None, 16, 16, 144)  0           concatenate_25[0][0]             \n",
      "                                                                 conv2d_28[0][0]                  \n",
      "__________________________________________________________________________________________________\n",
      "batch_normalization_28 (BatchNo (None, 16, 16, 144)  576         concatenate_26[0][0]             \n",
      "__________________________________________________________________________________________________\n",
      "activation_28 (Activation)      (None, 16, 16, 144)  0           batch_normalization_28[0][0]     \n",
      "__________________________________________________________________________________________________\n",
      "conv2d_29 (Conv2D)              (None, 16, 16, 12)   15552       activation_28[0][0]              \n",
      "__________________________________________________________________________________________________\n",
      "concatenate_27 (Concatenate)    (None, 16, 16, 156)  0           concatenate_26[0][0]             \n",
      "                                                                 conv2d_29[0][0]                  \n",
      "__________________________________________________________________________________________________\n",
      "batch_normalization_29 (BatchNo (None, 16, 16, 156)  624         concatenate_27[0][0]             \n",
      "__________________________________________________________________________________________________\n",
      "activation_29 (Activation)      (None, 16, 16, 156)  0           batch_normalization_29[0][0]     \n",
      "__________________________________________________________________________________________________\n",
      "conv2d_30 (Conv2D)              (None, 16, 16, 12)   16848       activation_29[0][0]              \n",
      "__________________________________________________________________________________________________\n",
      "concatenate_28 (Concatenate)    (None, 16, 16, 168)  0           concatenate_27[0][0]             \n",
      "                                                                 conv2d_30[0][0]                  \n",
      "__________________________________________________________________________________________________\n",
      "batch_normalization_30 (BatchNo (None, 16, 16, 168)  672         concatenate_28[0][0]             \n",
      "__________________________________________________________________________________________________\n",
      "activation_30 (Activation)      (None, 16, 16, 168)  0           batch_normalization_30[0][0]     \n",
      "__________________________________________________________________________________________________\n",
      "conv2d_31 (Conv2D)              (None, 16, 16, 12)   18144       activation_30[0][0]              \n",
      "__________________________________________________________________________________________________\n",
      "concatenate_29 (Concatenate)    (None, 16, 16, 180)  0           concatenate_28[0][0]             \n",
      "                                                                 conv2d_31[0][0]                  \n",
      "__________________________________________________________________________________________________\n",
      "batch_normalization_31 (BatchNo (None, 16, 16, 180)  720         concatenate_29[0][0]             \n",
      "__________________________________________________________________________________________________\n",
      "activation_31 (Activation)      (None, 16, 16, 180)  0           batch_normalization_31[0][0]     \n",
      "__________________________________________________________________________________________________\n",
      "conv2d_32 (Conv2D)              (None, 16, 16, 12)   19440       activation_31[0][0]              \n",
      "__________________________________________________________________________________________________\n",
      "concatenate_30 (Concatenate)    (None, 16, 16, 192)  0           concatenate_29[0][0]             \n",
      "                                                                 conv2d_32[0][0]                  \n",
      "__________________________________________________________________________________________________\n",
      "batch_normalization_32 (BatchNo (None, 16, 16, 192)  768         concatenate_30[0][0]             \n",
      "__________________________________________________________________________________________________\n",
      "activation_32 (Activation)      (None, 16, 16, 192)  0           batch_normalization_32[0][0]     \n",
      "__________________________________________________________________________________________________\n",
      "conv2d_33 (Conv2D)              (None, 16, 16, 12)   20736       activation_32[0][0]              \n",
      "__________________________________________________________________________________________________\n",
      "concatenate_31 (Concatenate)    (None, 16, 16, 204)  0           concatenate_30[0][0]             \n",
      "                                                                 conv2d_33[0][0]                  \n",
      "__________________________________________________________________________________________________\n",
      "batch_normalization_33 (BatchNo (None, 16, 16, 204)  816         concatenate_31[0][0]             \n",
      "__________________________________________________________________________________________________\n",
      "activation_33 (Activation)      (None, 16, 16, 204)  0           batch_normalization_33[0][0]     \n",
      "__________________________________________________________________________________________________\n",
      "conv2d_34 (Conv2D)              (None, 16, 16, 12)   2448        activation_33[0][0]              \n",
      "__________________________________________________________________________________________________\n",
      "average_pooling2d_1 (AveragePoo (None, 8, 8, 12)     0           conv2d_34[0][0]                  \n",
      "__________________________________________________________________________________________________\n",
      "batch_normalization_34 (BatchNo (None, 8, 8, 12)     48          average_pooling2d_1[0][0]        \n",
      "__________________________________________________________________________________________________\n",
      "activation_34 (Activation)      (None, 8, 8, 12)     0           batch_normalization_34[0][0]     \n",
      "__________________________________________________________________________________________________\n",
      "conv2d_35 (Conv2D)              (None, 8, 8, 12)     1296        activation_34[0][0]              \n",
      "__________________________________________________________________________________________________\n",
      "concatenate_32 (Concatenate)    (None, 8, 8, 24)     0           average_pooling2d_1[0][0]        \n",
      "                                                                 conv2d_35[0][0]                  \n",
      "__________________________________________________________________________________________________\n",
      "batch_normalization_35 (BatchNo (None, 8, 8, 24)     96          concatenate_32[0][0]             \n",
      "__________________________________________________________________________________________________\n",
      "activation_35 (Activation)      (None, 8, 8, 24)     0           batch_normalization_35[0][0]     \n",
      "__________________________________________________________________________________________________\n",
      "conv2d_36 (Conv2D)              (None, 8, 8, 12)     2592        activation_35[0][0]              \n",
      "__________________________________________________________________________________________________\n",
      "concatenate_33 (Concatenate)    (None, 8, 8, 36)     0           concatenate_32[0][0]             \n",
      "                                                                 conv2d_36[0][0]                  \n",
      "__________________________________________________________________________________________________\n",
      "batch_normalization_36 (BatchNo (None, 8, 8, 36)     144         concatenate_33[0][0]             \n",
      "__________________________________________________________________________________________________\n",
      "activation_36 (Activation)      (None, 8, 8, 36)     0           batch_normalization_36[0][0]     \n",
      "__________________________________________________________________________________________________\n",
      "conv2d_37 (Conv2D)              (None, 8, 8, 12)     3888        activation_36[0][0]              \n",
      "__________________________________________________________________________________________________\n",
      "concatenate_34 (Concatenate)    (None, 8, 8, 48)     0           concatenate_33[0][0]             \n",
      "                                                                 conv2d_37[0][0]                  \n",
      "__________________________________________________________________________________________________\n",
      "batch_normalization_37 (BatchNo (None, 8, 8, 48)     192         concatenate_34[0][0]             \n",
      "__________________________________________________________________________________________________\n",
      "activation_37 (Activation)      (None, 8, 8, 48)     0           batch_normalization_37[0][0]     \n",
      "__________________________________________________________________________________________________\n",
      "conv2d_38 (Conv2D)              (None, 8, 8, 12)     5184        activation_37[0][0]              \n",
      "__________________________________________________________________________________________________\n",
      "concatenate_35 (Concatenate)    (None, 8, 8, 60)     0           concatenate_34[0][0]             \n",
      "                                                                 conv2d_38[0][0]                  \n",
      "__________________________________________________________________________________________________\n",
      "batch_normalization_38 (BatchNo (None, 8, 8, 60)     240         concatenate_35[0][0]             \n",
      "__________________________________________________________________________________________________\n",
      "activation_38 (Activation)      (None, 8, 8, 60)     0           batch_normalization_38[0][0]     \n",
      "__________________________________________________________________________________________________\n",
      "conv2d_39 (Conv2D)              (None, 8, 8, 12)     6480        activation_38[0][0]              \n",
      "__________________________________________________________________________________________________\n",
      "concatenate_36 (Concatenate)    (None, 8, 8, 72)     0           concatenate_35[0][0]             \n",
      "                                                                 conv2d_39[0][0]                  \n",
      "__________________________________________________________________________________________________\n",
      "batch_normalization_39 (BatchNo (None, 8, 8, 72)     288         concatenate_36[0][0]             \n",
      "__________________________________________________________________________________________________\n",
      "activation_39 (Activation)      (None, 8, 8, 72)     0           batch_normalization_39[0][0]     \n",
      "__________________________________________________________________________________________________\n",
      "conv2d_40 (Conv2D)              (None, 8, 8, 12)     7776        activation_39[0][0]              \n",
      "__________________________________________________________________________________________________\n",
      "concatenate_37 (Concatenate)    (None, 8, 8, 84)     0           concatenate_36[0][0]             \n",
      "                                                                 conv2d_40[0][0]                  \n",
      "__________________________________________________________________________________________________\n",
      "batch_normalization_40 (BatchNo (None, 8, 8, 84)     336         concatenate_37[0][0]             \n",
      "__________________________________________________________________________________________________\n",
      "activation_40 (Activation)      (None, 8, 8, 84)     0           batch_normalization_40[0][0]     \n",
      "__________________________________________________________________________________________________\n",
      "conv2d_41 (Conv2D)              (None, 8, 8, 12)     9072        activation_40[0][0]              \n",
      "__________________________________________________________________________________________________\n",
      "concatenate_38 (Concatenate)    (None, 8, 8, 96)     0           concatenate_37[0][0]             \n",
      "                                                                 conv2d_41[0][0]                  \n",
      "__________________________________________________________________________________________________\n",
      "batch_normalization_41 (BatchNo (None, 8, 8, 96)     384         concatenate_38[0][0]             \n",
      "__________________________________________________________________________________________________\n",
      "activation_41 (Activation)      (None, 8, 8, 96)     0           batch_normalization_41[0][0]     \n",
      "__________________________________________________________________________________________________\n",
      "conv2d_42 (Conv2D)              (None, 8, 8, 12)     10368       activation_41[0][0]              \n",
      "__________________________________________________________________________________________________\n",
      "concatenate_39 (Concatenate)    (None, 8, 8, 108)    0           concatenate_38[0][0]             \n",
      "                                                                 conv2d_42[0][0]                  \n",
      "__________________________________________________________________________________________________\n",
      "batch_normalization_42 (BatchNo (None, 8, 8, 108)    432         concatenate_39[0][0]             \n",
      "__________________________________________________________________________________________________\n",
      "activation_42 (Activation)      (None, 8, 8, 108)    0           batch_normalization_42[0][0]     \n",
      "__________________________________________________________________________________________________\n",
      "conv2d_43 (Conv2D)              (None, 8, 8, 12)     11664       activation_42[0][0]              \n",
      "__________________________________________________________________________________________________\n",
      "concatenate_40 (Concatenate)    (None, 8, 8, 120)    0           concatenate_39[0][0]             \n",
      "                                                                 conv2d_43[0][0]                  \n",
      "__________________________________________________________________________________________________\n",
      "batch_normalization_43 (BatchNo (None, 8, 8, 120)    480         concatenate_40[0][0]             \n",
      "__________________________________________________________________________________________________\n",
      "activation_43 (Activation)      (None, 8, 8, 120)    0           batch_normalization_43[0][0]     \n",
      "__________________________________________________________________________________________________\n",
      "conv2d_44 (Conv2D)              (None, 8, 8, 12)     12960       activation_43[0][0]              \n",
      "__________________________________________________________________________________________________\n",
      "concatenate_41 (Concatenate)    (None, 8, 8, 132)    0           concatenate_40[0][0]             \n",
      "                                                                 conv2d_44[0][0]                  \n",
      "__________________________________________________________________________________________________\n",
      "batch_normalization_44 (BatchNo (None, 8, 8, 132)    528         concatenate_41[0][0]             \n",
      "__________________________________________________________________________________________________\n",
      "activation_44 (Activation)      (None, 8, 8, 132)    0           batch_normalization_44[0][0]     \n",
      "__________________________________________________________________________________________________\n",
      "conv2d_45 (Conv2D)              (None, 8, 8, 12)     14256       activation_44[0][0]              \n",
      "__________________________________________________________________________________________________\n",
      "concatenate_42 (Concatenate)    (None, 8, 8, 144)    0           concatenate_41[0][0]             \n",
      "                                                                 conv2d_45[0][0]                  \n",
      "__________________________________________________________________________________________________\n",
      "batch_normalization_45 (BatchNo (None, 8, 8, 144)    576         concatenate_42[0][0]             \n",
      "__________________________________________________________________________________________________\n",
      "activation_45 (Activation)      (None, 8, 8, 144)    0           batch_normalization_45[0][0]     \n",
      "__________________________________________________________________________________________________\n",
      "conv2d_46 (Conv2D)              (None, 8, 8, 12)     15552       activation_45[0][0]              \n",
      "__________________________________________________________________________________________________\n",
      "concatenate_43 (Concatenate)    (None, 8, 8, 156)    0           concatenate_42[0][0]             \n",
      "                                                                 conv2d_46[0][0]                  \n",
      "__________________________________________________________________________________________________\n",
      "batch_normalization_46 (BatchNo (None, 8, 8, 156)    624         concatenate_43[0][0]             \n",
      "__________________________________________________________________________________________________\n",
      "activation_46 (Activation)      (None, 8, 8, 156)    0           batch_normalization_46[0][0]     \n",
      "__________________________________________________________________________________________________\n",
      "conv2d_47 (Conv2D)              (None, 8, 8, 12)     16848       activation_46[0][0]              \n",
      "__________________________________________________________________________________________________\n",
      "concatenate_44 (Concatenate)    (None, 8, 8, 168)    0           concatenate_43[0][0]             \n",
      "                                                                 conv2d_47[0][0]                  \n",
      "__________________________________________________________________________________________________\n",
      "batch_normalization_47 (BatchNo (None, 8, 8, 168)    672         concatenate_44[0][0]             \n",
      "__________________________________________________________________________________________________\n",
      "activation_47 (Activation)      (None, 8, 8, 168)    0           batch_normalization_47[0][0]     \n",
      "__________________________________________________________________________________________________\n",
      "conv2d_48 (Conv2D)              (None, 8, 8, 12)     18144       activation_47[0][0]              \n",
      "__________________________________________________________________________________________________\n",
      "concatenate_45 (Concatenate)    (None, 8, 8, 180)    0           concatenate_44[0][0]             \n",
      "                                                                 conv2d_48[0][0]                  \n",
      "__________________________________________________________________________________________________\n",
      "batch_normalization_48 (BatchNo (None, 8, 8, 180)    720         concatenate_45[0][0]             \n",
      "__________________________________________________________________________________________________\n",
      "activation_48 (Activation)      (None, 8, 8, 180)    0           batch_normalization_48[0][0]     \n",
      "__________________________________________________________________________________________________\n",
      "conv2d_49 (Conv2D)              (None, 8, 8, 12)     19440       activation_48[0][0]              \n",
      "__________________________________________________________________________________________________\n",
      "concatenate_46 (Concatenate)    (None, 8, 8, 192)    0           concatenate_45[0][0]             \n",
      "                                                                 conv2d_49[0][0]                  \n",
      "__________________________________________________________________________________________________\n",
      "batch_normalization_49 (BatchNo (None, 8, 8, 192)    768         concatenate_46[0][0]             \n",
      "__________________________________________________________________________________________________\n",
      "activation_49 (Activation)      (None, 8, 8, 192)    0           batch_normalization_49[0][0]     \n",
      "__________________________________________________________________________________________________\n",
      "conv2d_50 (Conv2D)              (None, 8, 8, 12)     20736       activation_49[0][0]              \n",
      "__________________________________________________________________________________________________\n",
      "concatenate_47 (Concatenate)    (None, 8, 8, 204)    0           concatenate_46[0][0]             \n",
      "                                                                 conv2d_50[0][0]                  \n",
      "__________________________________________________________________________________________________\n",
      "batch_normalization_50 (BatchNo (None, 8, 8, 204)    816         concatenate_47[0][0]             \n",
      "__________________________________________________________________________________________________\n",
      "activation_50 (Activation)      (None, 8, 8, 204)    0           batch_normalization_50[0][0]     \n",
      "__________________________________________________________________________________________________\n",
      "conv2d_51 (Conv2D)              (None, 8, 8, 12)     2448        activation_50[0][0]              \n",
      "__________________________________________________________________________________________________\n",
      "average_pooling2d_2 (AveragePoo (None, 4, 4, 12)     0           conv2d_51[0][0]                  \n",
      "__________________________________________________________________________________________________\n",
      "batch_normalization_51 (BatchNo (None, 4, 4, 12)     48          average_pooling2d_2[0][0]        \n",
      "__________________________________________________________________________________________________\n",
      "activation_51 (Activation)      (None, 4, 4, 12)     0           batch_normalization_51[0][0]     \n",
      "__________________________________________________________________________________________________\n",
      "conv2d_52 (Conv2D)              (None, 4, 4, 12)     1296        activation_51[0][0]              \n",
      "__________________________________________________________________________________________________\n",
      "concatenate_48 (Concatenate)    (None, 4, 4, 24)     0           average_pooling2d_2[0][0]        \n",
      "                                                                 conv2d_52[0][0]                  \n",
      "__________________________________________________________________________________________________\n",
      "batch_normalization_52 (BatchNo (None, 4, 4, 24)     96          concatenate_48[0][0]             \n",
      "__________________________________________________________________________________________________\n",
      "activation_52 (Activation)      (None, 4, 4, 24)     0           batch_normalization_52[0][0]     \n",
      "__________________________________________________________________________________________________\n",
      "conv2d_53 (Conv2D)              (None, 4, 4, 12)     2592        activation_52[0][0]              \n",
      "__________________________________________________________________________________________________\n",
      "concatenate_49 (Concatenate)    (None, 4, 4, 36)     0           concatenate_48[0][0]             \n",
      "                                                                 conv2d_53[0][0]                  \n",
      "__________________________________________________________________________________________________\n",
      "batch_normalization_53 (BatchNo (None, 4, 4, 36)     144         concatenate_49[0][0]             \n",
      "__________________________________________________________________________________________________\n",
      "activation_53 (Activation)      (None, 4, 4, 36)     0           batch_normalization_53[0][0]     \n",
      "__________________________________________________________________________________________________\n",
      "conv2d_54 (Conv2D)              (None, 4, 4, 12)     3888        activation_53[0][0]              \n",
      "__________________________________________________________________________________________________\n",
      "concatenate_50 (Concatenate)    (None, 4, 4, 48)     0           concatenate_49[0][0]             \n",
      "                                                                 conv2d_54[0][0]                  \n",
      "__________________________________________________________________________________________________\n",
      "batch_normalization_54 (BatchNo (None, 4, 4, 48)     192         concatenate_50[0][0]             \n",
      "__________________________________________________________________________________________________\n",
      "activation_54 (Activation)      (None, 4, 4, 48)     0           batch_normalization_54[0][0]     \n",
      "__________________________________________________________________________________________________\n",
      "conv2d_55 (Conv2D)              (None, 4, 4, 12)     5184        activation_54[0][0]              \n",
      "__________________________________________________________________________________________________\n",
      "concatenate_51 (Concatenate)    (None, 4, 4, 60)     0           concatenate_50[0][0]             \n",
      "                                                                 conv2d_55[0][0]                  \n",
      "__________________________________________________________________________________________________\n",
      "batch_normalization_55 (BatchNo (None, 4, 4, 60)     240         concatenate_51[0][0]             \n",
      "__________________________________________________________________________________________________\n",
      "activation_55 (Activation)      (None, 4, 4, 60)     0           batch_normalization_55[0][0]     \n",
      "__________________________________________________________________________________________________\n",
      "conv2d_56 (Conv2D)              (None, 4, 4, 12)     6480        activation_55[0][0]              \n",
      "__________________________________________________________________________________________________\n",
      "concatenate_52 (Concatenate)    (None, 4, 4, 72)     0           concatenate_51[0][0]             \n",
      "                                                                 conv2d_56[0][0]                  \n",
      "__________________________________________________________________________________________________\n",
      "batch_normalization_56 (BatchNo (None, 4, 4, 72)     288         concatenate_52[0][0]             \n",
      "__________________________________________________________________________________________________\n",
      "activation_56 (Activation)      (None, 4, 4, 72)     0           batch_normalization_56[0][0]     \n",
      "__________________________________________________________________________________________________\n",
      "conv2d_57 (Conv2D)              (None, 4, 4, 12)     7776        activation_56[0][0]              \n",
      "__________________________________________________________________________________________________\n",
      "concatenate_53 (Concatenate)    (None, 4, 4, 84)     0           concatenate_52[0][0]             \n",
      "                                                                 conv2d_57[0][0]                  \n",
      "__________________________________________________________________________________________________\n",
      "batch_normalization_57 (BatchNo (None, 4, 4, 84)     336         concatenate_53[0][0]             \n",
      "__________________________________________________________________________________________________\n",
      "activation_57 (Activation)      (None, 4, 4, 84)     0           batch_normalization_57[0][0]     \n",
      "__________________________________________________________________________________________________\n",
      "conv2d_58 (Conv2D)              (None, 4, 4, 12)     9072        activation_57[0][0]              \n",
      "__________________________________________________________________________________________________\n",
      "concatenate_54 (Concatenate)    (None, 4, 4, 96)     0           concatenate_53[0][0]             \n",
      "                                                                 conv2d_58[0][0]                  \n",
      "__________________________________________________________________________________________________\n",
      "batch_normalization_58 (BatchNo (None, 4, 4, 96)     384         concatenate_54[0][0]             \n",
      "__________________________________________________________________________________________________\n",
      "activation_58 (Activation)      (None, 4, 4, 96)     0           batch_normalization_58[0][0]     \n",
      "__________________________________________________________________________________________________\n",
      "conv2d_59 (Conv2D)              (None, 4, 4, 12)     10368       activation_58[0][0]              \n",
      "__________________________________________________________________________________________________\n",
      "concatenate_55 (Concatenate)    (None, 4, 4, 108)    0           concatenate_54[0][0]             \n",
      "                                                                 conv2d_59[0][0]                  \n",
      "__________________________________________________________________________________________________\n",
      "batch_normalization_59 (BatchNo (None, 4, 4, 108)    432         concatenate_55[0][0]             \n",
      "__________________________________________________________________________________________________\n",
      "activation_59 (Activation)      (None, 4, 4, 108)    0           batch_normalization_59[0][0]     \n",
      "__________________________________________________________________________________________________\n",
      "conv2d_60 (Conv2D)              (None, 4, 4, 12)     11664       activation_59[0][0]              \n",
      "__________________________________________________________________________________________________\n",
      "concatenate_56 (Concatenate)    (None, 4, 4, 120)    0           concatenate_55[0][0]             \n",
      "                                                                 conv2d_60[0][0]                  \n",
      "__________________________________________________________________________________________________\n",
      "batch_normalization_60 (BatchNo (None, 4, 4, 120)    480         concatenate_56[0][0]             \n",
      "__________________________________________________________________________________________________\n",
      "activation_60 (Activation)      (None, 4, 4, 120)    0           batch_normalization_60[0][0]     \n",
      "__________________________________________________________________________________________________\n",
      "conv2d_61 (Conv2D)              (None, 4, 4, 12)     12960       activation_60[0][0]              \n",
      "__________________________________________________________________________________________________\n",
      "concatenate_57 (Concatenate)    (None, 4, 4, 132)    0           concatenate_56[0][0]             \n",
      "                                                                 conv2d_61[0][0]                  \n",
      "__________________________________________________________________________________________________\n",
      "batch_normalization_61 (BatchNo (None, 4, 4, 132)    528         concatenate_57[0][0]             \n",
      "__________________________________________________________________________________________________\n",
      "activation_61 (Activation)      (None, 4, 4, 132)    0           batch_normalization_61[0][0]     \n",
      "__________________________________________________________________________________________________\n",
      "conv2d_62 (Conv2D)              (None, 4, 4, 12)     14256       activation_61[0][0]              \n",
      "__________________________________________________________________________________________________\n",
      "concatenate_58 (Concatenate)    (None, 4, 4, 144)    0           concatenate_57[0][0]             \n",
      "                                                                 conv2d_62[0][0]                  \n",
      "__________________________________________________________________________________________________\n",
      "batch_normalization_62 (BatchNo (None, 4, 4, 144)    576         concatenate_58[0][0]             \n",
      "__________________________________________________________________________________________________\n",
      "activation_62 (Activation)      (None, 4, 4, 144)    0           batch_normalization_62[0][0]     \n",
      "__________________________________________________________________________________________________\n",
      "conv2d_63 (Conv2D)              (None, 4, 4, 12)     15552       activation_62[0][0]              \n",
      "__________________________________________________________________________________________________\n",
      "concatenate_59 (Concatenate)    (None, 4, 4, 156)    0           concatenate_58[0][0]             \n",
      "                                                                 conv2d_63[0][0]                  \n",
      "__________________________________________________________________________________________________\n",
      "batch_normalization_63 (BatchNo (None, 4, 4, 156)    624         concatenate_59[0][0]             \n",
      "__________________________________________________________________________________________________\n",
      "activation_63 (Activation)      (None, 4, 4, 156)    0           batch_normalization_63[0][0]     \n",
      "__________________________________________________________________________________________________\n",
      "conv2d_64 (Conv2D)              (None, 4, 4, 12)     16848       activation_63[0][0]              \n",
      "__________________________________________________________________________________________________\n",
      "concatenate_60 (Concatenate)    (None, 4, 4, 168)    0           concatenate_59[0][0]             \n",
      "                                                                 conv2d_64[0][0]                  \n",
      "__________________________________________________________________________________________________\n",
      "batch_normalization_64 (BatchNo (None, 4, 4, 168)    672         concatenate_60[0][0]             \n",
      "__________________________________________________________________________________________________\n",
      "activation_64 (Activation)      (None, 4, 4, 168)    0           batch_normalization_64[0][0]     \n",
      "__________________________________________________________________________________________________\n",
      "conv2d_65 (Conv2D)              (None, 4, 4, 12)     18144       activation_64[0][0]              \n",
      "__________________________________________________________________________________________________\n",
      "concatenate_61 (Concatenate)    (None, 4, 4, 180)    0           concatenate_60[0][0]             \n",
      "                                                                 conv2d_65[0][0]                  \n",
      "__________________________________________________________________________________________________\n",
      "batch_normalization_65 (BatchNo (None, 4, 4, 180)    720         concatenate_61[0][0]             \n",
      "__________________________________________________________________________________________________\n",
      "activation_65 (Activation)      (None, 4, 4, 180)    0           batch_normalization_65[0][0]     \n",
      "__________________________________________________________________________________________________\n",
      "conv2d_66 (Conv2D)              (None, 4, 4, 12)     19440       activation_65[0][0]              \n",
      "__________________________________________________________________________________________________\n",
      "concatenate_62 (Concatenate)    (None, 4, 4, 192)    0           concatenate_61[0][0]             \n",
      "                                                                 conv2d_66[0][0]                  \n",
      "__________________________________________________________________________________________________\n",
      "batch_normalization_66 (BatchNo (None, 4, 4, 192)    768         concatenate_62[0][0]             \n",
      "__________________________________________________________________________________________________\n",
      "activation_66 (Activation)      (None, 4, 4, 192)    0           batch_normalization_66[0][0]     \n",
      "__________________________________________________________________________________________________\n",
      "conv2d_67 (Conv2D)              (None, 4, 4, 12)     20736       activation_66[0][0]              \n",
      "__________________________________________________________________________________________________\n",
      "concatenate_63 (Concatenate)    (None, 4, 4, 204)    0           concatenate_62[0][0]             \n",
      "                                                                 conv2d_67[0][0]                  \n",
      "__________________________________________________________________________________________________\n",
      "batch_normalization_67 (BatchNo (None, 4, 4, 204)    816         concatenate_63[0][0]             \n",
      "__________________________________________________________________________________________________\n",
      "activation_67 (Activation)      (None, 4, 4, 204)    0           batch_normalization_67[0][0]     \n",
      "__________________________________________________________________________________________________\n",
      "average_pooling2d_3 (AveragePoo (None, 2, 2, 204)    0           activation_67[0][0]              \n",
      "__________________________________________________________________________________________________\n",
      "conv2d_68 (Conv2D)              (None, 1, 1, 10)     8160        average_pooling2d_3[0][0]        \n",
      "__________________________________________________________________________________________________\n",
      "conv2d_69 (Conv2D)              (None, 1, 1, 10)     100         conv2d_68[0][0]                  \n",
      "__________________________________________________________________________________________________\n",
      "flatten (Flatten)               (None, 10)           0           conv2d_69[0][0]                  \n",
      "__________________________________________________________________________________________________\n",
      "activation_68 (Activation)      (None, 10)           0           flatten[0][0]                    \n",
      "==================================================================================================\n",
      "Total params: 772,852\n",
      "Trainable params: 757,756\n",
      "Non-trainable params: 15,096\n",
      "__________________________________________________________________________________________________\n"
     ]
    }
   ],
   "source": [
…
